notebooks/sparsity/data/KFeatureSelector/NCC/weight.npy (npy, 704 bytes, 1 tensors)

array f4 [144]
00000000: 048f 973d f3ba b13d 45a7 363e 8ec8 c616
00000010: 3740 0c3e 5a52 bb3d 0346 8ba1 32ba 2298
00000020: abf8 f515 419a 229c 628a f33d 9b91 803d
00000030: c0aa 9b9c 4aef 7a3d 05bc ddad ce75 091c
00000040: 7a75 43b0 66ad 3128 a122 8897 baea 343e
00000050: bf96 b018 33ae f43c a4fa fbb8 ab44 5b3e
00000060: ccf2 a094 5221 fa26 09f5 2db6 62ab bb3d
00000070: 2f09 bc3d 7b00 d716 2c42 7e13 c35f fbb4
00000080: 6183 a13d 3177 623d 5602 af3d 4414 daae
00000090: d64c 5218 3842 b616 c79e 2897 2f7c fe3d
000000a0: 4ca9 f43d 8745 5816 1b70 d33d bfc3 6017
000000b0: 94bb 9798 c0e4 e326 f598 31b2 d6ba 023e
000000c0: ef72 0626 7c03 2b3e 0c76 413d 732c 933d
000000d0: a836 f7b9 4b38 b13d 01f7 7699 71c6 123e
000000e0: f47b ec3d ab89 063e e9bc 3999 30d0 1918
000000f0: a416 8297 0261 4498 9ec6 1e3d f4fe 5816
00000100: df7b b112 3c54 b73e f029 0c3e 5ce9 1b3e
00000110: a789 8019 e13c 593d f7d8 9916 5da4 6da5
00000120: 1b7a cb16 cd54 a096 3754 b63d 2502 6996
00000130: 8cb4 82b6 3eaa c33d ff63 2b9a 7d70 e73d
00000140: 963a 8d98 7f96 39b5 afc4 b51a e24e 5c17
00000150: 2b36 e017 8997 9a17 1e99 dc96 f3f4 b83d
00000160: 0a01 66b9 0c57 50a3 8a25 193e 45f8 5028
00000170: f56c 0928 8415 f3b0 4212 1e3e 0f67 ed3d
00000180: aade 8ca9 e6a5 9717 9ffb 4e94 6bb7 0f3e
00000190: 57f0 4aa1 de9c dc19 f008 1920 dfd3 8698
000001a0: e922 8e96 f643 6e3e bd61 d83d 08fc ae3d
000001b0: 05b5 4295 0a92 3e3e c660 cd3d f784 6bb1
000001c0: aa54 583e b555 303e 7054 b93d 9375 0f17
000001d0: d1d5 48b2 346b bc17 5006 273e 60ff fa3d
000001e0: a213 043e 0098 373e 19e9 113e 4960 573d
000001f0: c1a0 0d3e 835a 66b1 03db d23c 3ef9 171c
00000200: 5b9d 1d3e 7405 281c e691 9a3d 08f3 7d9c
00000210: e853 1c3e 2d6e 7899 99ac f23c 5b43 323d
00000220: 688e c397 d589 e53c f168 8694 096c f69c
00000230: 21c0 9d16 fa18 8cae a937 8913 df1e 4d3d
0.07400325 0.08678236 0.17837246 3.2115193e-25 0.13696371 0.09146567 -9.437538e-19 -2.1032014e-24
9.934704e-26 -5.380067e-22 0.11891629 0.06277772 -1.0301177e-21 0.06126336 -2.5208289e-11 4.5481757e-22
-7.110753e-10 9.8630736e-15 -8.797536e-25 0.17667666 4.564715e-24 0.02986822 -0.00012015298 0.21412914
-1.6251638e-26 1.7356266e-15 -2.5921638e-06 0.09163548 0.09181439 3.4735427e-25 3.2091932e-27 -4.682207e-07
0.07886387 0.05528945 0.085453674 -9.917092e-11 2.7180656e-24 2.9445476e-25 -5.4484133e-25 0.1242603
0.11946353 1.747028e-25 0.10324117 7.262537e-25 -3.922199e-24 1.5813292e-15 -1.0337534e-08 0.12766585
4.6646353e-16 0.16700548 0.04723172 0.071862124 -0.00047152233 0.08653315 -1.2767784e-23 0.14333512
0.1154708 0.13138454 -9.602426e-24 1.9879894e-24 -8.406768e-25 -2.5381383e-24 0.038763635 1.752879e-25
1.1200807e-27 0.35806453 0.13687873 0.15225738 1.3290487e-23 0.053036574 2.4855407e-25 -2.0612162e-16
3.2873478e-25 -2.590291e-25 0.089027815 -1.8822267e-25 -3.8953203e-06 0.095539555 -3.5442747e-23 0.11300752
-3.6506802e-24 -6.913687e-07 7.5177605e-23 7.11854e-25 1.4489335e-24 9.99027e-25 -3.5639547e-25 0.09031095
-0.00021934896 -1.12941355e-17 0.14955726 1.1600154e-14 7.628654e-15 -1.7686692e-09 0.15436652 0.115919225
-6.255875e-14 9.800025e-25 -1.0449966e-26 0.14034812 -6.875835e-19 2.2810825e-23 1.2962561e-19 -3.4852123e-24
-2.2963369e-25 0.23268113 0.10565517 0.08544165 -3.9320787e-26 0.18610397 0.10028224 -3.4272583e-09
0.21126047 0.17220195 0.09049308 4.635419e-25 -1.1690148e-08 1.2176277e-24 0.16311002 0.1225574
0.12898114 0.17929077 0.14249076 0.05258206 0.13830854 -3.3520855e-09 0.025739199 5.0283847e-22
0.15392058 5.5593585e-22 0.07547359 -8.402479e-22 0.15266383 -1.2843549e-23 0.029623317 0.043521266
-1.2637528e-24 0.028019825 -1.3571934e-26 -1.6306841e-21 2.5485968e-25 -6.3708996e-11 3.4638547e-27 0.05007827
