notebooks/sparsity/data/KFeatureSelector/MSE/weight.npy (npy, 704 bytes, 1 tensors)

array f4 [144]
000000 30 6e d0 19 0d dc d2 3d 8c 93 cf b3 7f 22 53 26
       2.15512e-23 0.102958776 -9.666027e-08 7.325208e-16
000010 77 97 2d a5 98 e6 69 1b da a2 32 b9 1f d3 9c 3e
       -1.5056676e-16 1.9347817e-22 -0.0001703607 0.30629823
000020 ae 5d 07 3e 11 d4 06 3d 41 28 6b a5 3a 97 71 3e
       0.1321933 0.032917086 -2.039664e-16 0.23592845
000030 53 ef 3d bc a6 25 e9 a4 d3 86 d2 3d 69 49 00 bc
       -0.011592704 -1.0111142e-16 0.10279622 -0.007830002
000040 a5 4b 03 a4 67 81 71 3d 6b fa 86 3d c0 df 40 3d
       -2.847017e-17 0.0589613 0.06590732 0.047088385
000050 dc e6 58 98 90 5a 8a 3d b9 55 2e 9b 7b 99 15 3e
       -2.80339e-24 0.06755555 -1.4420641e-22 0.1460933
000060 b6 9c 13 b0 af 24 8b 96 36 f9 f5 bb 67 a8 02 97
       -5.370099e-10 -2.2479812e-25 -0.007506515 -4.221782e-25
000070 42 2b 6b 3e fc 0f 05 3e 51 b6 12 27 29 b0 ed 9e
       0.2296572 0.12994379 2.0360404e-15 -2.516621e-20
000080 33 1e 9b bb 32 88 37 15 12 0e 8e 3e 7c a9 b2 ba
       -0.0047338246 3.7063995e-26 0.2774511 -0.0013630833
000090 eb 03 4d 3e c9 6d c5 3d ad 0a c1 3d 3a 2a f0 b4
       0.20021026 0.096400805 0.09425864 -4.4734207e-07
0000a0 de bb 3a 3e b4 73 7c 3e fc ae cb ae a3 fb 94 b7
       0.18235728 0.24653512 -9.262455e-11 -1.7760152e-05
0000b0 40 99 a1 17 da b0 56 23 99 c0 ea ac 71 6b 46 96
       1.0443067e-24 1.1638413e-17 -6.6720626e-12 -1.6028215e-25
0000c0 9c 79 65 3e 3d 56 10 3e 76 5f 83 ba 38 9f 89 9c
       0.22409672 0.14095397 -0.0010022956 -9.107057e-22
0000d0 e9 39 d1 aa 7a f8 d9 b0 81 69 82 15 b1 f8 47 9e
       -3.716604e-13 -1.5859449e-09 5.267304e-26 -1.05864005e-20
0000e0 65 5d bc 3d e5 46 f3 3d 5e df cc 3d de 48 6d 3d
       0.09197501 0.118787564 0.100035414 0.05793082
0000f0 a5 1d 92 b4 bb 1e bb ba 9b 82 40 28 db 46 58 27
       -2.7216188e-07 -0.0014276126 1.0686462e-14 3.0014432e-15
000100 3a 84 06 bc 15 c7 0a 3e 5d 4b 62 3d 2f 6d 86 17
       -0.008210236 0.13552506 0.055247653 8.687109e-25
000110 9e b9 04 3e ec 71 5d 9e 1a 03 51 3e f5 e2 20 99
       0.12961432 -1.1723201e-20 0.2041134 -8.31764e-24
000120 32 cc f8 bb 27 b7 14 b5 bf d9 a2 3d 54 47 0e 20
       -0.0075927014 -5.540082e-07 0.07951688 1.2051468e-19
000130 1a d5 26 19 c4 9a 57 9a 28 d9 cd 1d 35 5b 9a 94
       8.625034e-24 -4.4585977e-23 5.4487582e-21 -1.5586001e-26
000140 fa e9 0e bc 5f 4a 12 bb 1d ff c2 3d 85 1d 03 3e
       -0.008722777 -0.002232216 0.09521315 0.1280423
000150 1b 0c f2 15 5f f3 f6 bb 13 cc 8f 3d 94 66 b8 1c
       9.776212e-26 -0.0075363363 0.07021346 1.2202614e-21
000160 e1 4f 84 b3 44 b2 00 28 1d 71 fe 3d 80 16 c4 98
       -6.161259e-08 7.1440826e-15 0.124239184 -5.068753e-24
000170 a4 13 60 14 f0 94 9c 1d e9 8b f3 18 f5 6a 31 bc
       1.1312983e-26 4.1446854e-21 6.29553e-24 -0.010828723
000180 45 4f c3 1a e7 c4 a4 3e 1d 4e b5 af 8b 7a 96 ac
       8.0778177e-23 0.32181475 -3.297921e-10 -4.2768614e-12
000190 d5 4b 19 3e ad 07 c3 96 cf f6 72 b7 51 a1 d5 3d
       0.14970334 -3.1508793e-25 -1.4481789e-05 0.10431159
0001a0 b4 a7 99 3e 5e 0c 11 3e 24 ff a9 3d ec d9 91 98
       0.3001076 0.14164874 0.08300617 -3.7701666e-24
0001b0 49 b9 e7 bb dc d0 a7 26 88 98 bc 3d 59 2b 84 99
       -0.0070716483 1.1644564e-15 0.092087805 -1.3665988e-23
0001c0 a3 f6 c6 3d 83 f4 2e bc e9 eb 4e 23 6d 96 11 bc
       0.09715011 -0.010678413 1.1217238e-17 -0.008885962
0001d0 65 33 19 3e d4 f3 00 9a d5 c8 7b 3e be 9e 08 bc
       0.14961012 -2.6666742e-23 0.2458833 -0.008338628
0001e0 f5 1a 46 3e 97 3a b3 3d e4 21 a5 3e dd 53 16 19
       0.19346221 0.087514095 0.3225242 7.771754e-24
0001f0 b6 be a3 3e 4b ec 25 3e 7c 15 22 bb 96 ad 78 16
       0.31981438 0.1620342 -0.0024732044 2.0088055e-25
000200 53 25 b8 99 28 b0 da bb 99 3c b5 b7 91 3d 88 18
       -1.904023e-23 -0.0066738315 -2.16051e-05 3.5217342e-24
000210 9f 9e aa b1 8c 6b 30 28 ae 58 86 b1 89 cb 8b 96
       -4.9656843e-09 9.793283e-15 -3.909995e-09 -2.258511e-25
000220 e9 1c 8a 1d 4d 54 db b5 1e 5b 2d 3e d8 d0 a0 26
       3.655819e-21 -1.6341306e-06 0.1692929 1.1158837e-15
000230 eb 4e 49 23 20 9f 7d 96 67 f6 f2 bb 66 f0 fd 3d
       1.0912943e-17 -2.0487388e-25 -0.0074146274 0.12399368
