notebooks/sparsity/data/SparseWeightedFeatureSelector/NCC/weight.npy (npy, 704 bytes, 1 tensors)

array f4 [144]
00000000: 31e4 b4be c2fb 3abf 281a aa3d 8a9c 623a
00000010: 29e9 10bf d62b 0bbe 7cfe ecbe 2cc9 a53d
00000020: 4823 2cbf 8ffa 71be 3b8c 52be 95cc 54bf
00000030: a3a3 9f3d 8708 f63c 45c4 20bf 4178 51bf
00000040: 8031 a6be 3ebd 3e3e a7f9 5dbe cc09 48bf
00000050: f432 30be 20a1 e1be 9724 09bf c6d2 23bf
00000060: df31 d3be 0877 28bf 7a31 b13d 21d2 44be
00000070: 2113 31bf ad98 3dbf dcc8 ed3d 5c87 2ebf
00000080: c225 d639 2216 4cbd 999f 20be d087 04bf
00000090: 65c0 aabe 31f6 02bf 925f 75be 9239 46bf
000000a0: db1c 97bd 4982 45be 20b2 bdbe 6812 46be
000000b0: e67c 133e 0e99 5abf 6efb cdbe 9d6f 0cbe
000000c0: 1cdc 3a3d 2a6c 963d 6fc0 6fbe daf7 12be
000000d0: 8044 62be ec0b 2b3e e1ca 0f3e e330 1dbf
000000e0: 18b6 8c3c aaf5 07bf 14aa 17bf fd2e f1be
000000f0: fac2 59bf 48b7 0abe dd17 a2be 1a55 44be
00000100: bdc5 19be 8654 a4bd 79ac 70be 2701 d0be
00000110: 77bf 883d 89f3 96bd 274c babe 6516 d8be
00000120: 8cac adbe 423f 0abf ee7c 52bf 2259 98be
00000130: 1ad0 3bbe 3f59 72be dc7a 03bf 6729 16bf
00000140: 8f39 29be 6abb 003e 1157 ec3c ce2d fdbe
00000150: 0bd0 f0be 1022 873c 7b47 913d 0d46 c73d
00000160: 8ca9 9bbe 44ac 0c3e 4bc8 6cbe bff2 00bf
00000170: 00a2 d9be 993b cdbe 0458 51be 9e6b 873d
00000180: 76de 2dbe 0284 debe 6c2e 49bf 4f8f 19bf
00000190: b591 e23d bbde c4bd e73b 02be df5f 40bf
000001a0: 9132 49bf 1c3c 18be c4a3 d53d bce5 aebe
000001b0: f5d2 3abf 00e8 fcbe 7599 dc3d 3307 ec3d
000001c0: 1a49 c5be 93c2 a6be 6cd5 943c 731a 4cbf
000001d0: 039c 673c ec9b 88be 5b4b a63d 066c c6be
000001e0: e7a7 33bf 686e 953d f4ca 94be 72f9 a13d
000001f0: 47c4 25bf b4be 26be 8d36 17bf 7110 15bf
00000200: 68f2 1bbf 6e6b 1bbe c795 f43d 5b25 0dbe
00000210: 1089 c53c c00c 67be 0549 70bd 5156 4c3d
00000220: 9561 4abd 5014 07be 8f3a 94be 6b6b 92ba
00000230: 53e4 32bf 2673 37be 8cbe 5dbf 9499 0cbf
-0.35330346 -0.730404 0.0830577 0.0008644542 -0.56605774 -0.13590941 -0.46287906 0.08095011
-0.67241335 -0.23630737 -0.20561306 -0.8312467 0.07794883 0.030033363 -0.62799484 -0.8182412
-0.3245964 0.18626878 -0.21677266 -0.7813995 -0.17206937 -0.4406824 -0.53571457 -0.6399349
-0.41248986 -0.6580663 0.08652015 -0.19220783 -0.69169813 -0.7406109 0.116105765 -0.6817529
0.00040845393 -0.049825795 -0.15685882 -0.51769733 -0.3334991 -0.5115691 -0.23962238 -0.77431595
-0.073785506 -0.19287981 -0.3704996 -0.19342959 0.14403114 -0.8538979 -0.40230888 -0.13714452
0.04562007 0.073448494 -0.23413251 -0.1435236 -0.22096443 0.16703767 0.14042236 -0.6140272
0.017176673 -0.5310923 -0.59243894 -0.47106162 -0.85063136 -0.13546479 -0.3165883 -0.19173089
-0.15016837 -0.08023934 -0.23503293 -0.4062588 0.06677144 -0.073706694 -0.36386225 -0.42204586
-0.33920705 -0.54002774 -0.8222188 -0.29755503 -0.18341103 -0.23666857 -0.51359344 -0.58656925
-0.16525863 0.12571493 0.02885011 -0.4944901 -0.47033724 0.016495734 0.07093712 0.09730158
-0.30402792 0.13737589 -0.2312328 -0.503704 -0.4250641 -0.40084532 -0.20443732 0.06612323
-0.16979393 -0.4346009 -0.7858646 -0.59984297 0.11062948 -0.09612795 -0.12718163 -0.7514629
-0.78592783 -0.1486668 0.104316264 -0.34159648 -0.72978145 -0.49395752 0.10771457 0.11524811
-0.38532335 -0.32570323 0.018168174 -0.7972786 0.014136317 -0.2668146 0.08119842 -0.3875429
-0.70178074 0.07296449 -0.2906109 0.07908906 -0.6475262 -0.16283685 -0.5906761 -0.5822821
-0.6091676 -0.151777 0.1194263 -0.13783781 0.024113208 -0.22563457 -0.058663387 0.049887005
-0.049409468 -0.13191342 -0.28950927 -0.0011170929 -0.69879645 -0.1791502 -0.86618876 -0.5492184
